day27/model/mnist.pth (torch, 816000 bytes, 4 tensors)

linear.weight f4 [256, 784]
000000 00 30 8c b9 b6 f2 9c 3c ac cc f0 bc 93 50 d7 bc
       -0.00026738644 0.019158702 -0.02939447 -0.026283538
000010 ce 5e 61 bc 10 e9 1c 3c 40 7f 39 ba 12 fa e7 3c
       -0.013755513 0.009577051 -0.00070761517 0.028317485
000020 30 b6 4f bb 10 d6 1a 3c 7c d6 30 bc a4 09 e6 bb
       -0.0031694286 0.009450451 -0.010793325 -0.007020192
000030 fc c0 0b bd cc c3 c1 bc 9c 35 71 bc 00 68 ad 3a
       -0.03411959 -0.023652934 -0.014722254 0.0013229847
000040 dc 53 67 3c ae 8c af 3c a0 58 c6 bc d8 ce 7e bc
       0.014119115 0.021429386 -0.024212182 -0.015552245
000050 b0 88 54 3c a2 f2 f2 3c 54 d8 f0 bb 46 ef da 3c
       0.012972042 0.029656712 -0.007350007 0.026725423
000060 70 a1 bc bb 60 aa 77 3b 4f 75 04 3d 76 b4 07 bd
       -0.0057565495 0.003779076 0.032338437 -0.033131085
000070 50 2f b8 bc 4a 23 14 bc b2 16 64 bc 2e c8 fc 3c
       -0.022483498 -0.009041617 -0.013921427 0.030857172
000080 8b a3 bd bc 6d be 85 bc 67 7a a6 3d c9 76 d2 3c
       -0.023149272 -0.016326154 0.08128815 0.025691407
000090 e3 e4 6a bd cc 43 6c 3c 4c 37 ac bd 05 ba ec bd
       -0.05734719 0.014420461 -0.084089845 -0.11558918
0000a0 77 5b 17 be 2f f7 f0 bd f0 5e 54 be b1 77 3e be
       -0.14780985 -0.117658965 -0.20739341 -0.18600346
0000b0 e6 58 a2 bd 5b 2e ad bd 53 5a 83 bc 89 d5 1a 3e
       -0.07927112 -0.08456107 -0.01603428 0.1512052
0000c0 ce d1 4e 3e 62 ae fe bd 73 f7 d1 bd c0 9b dd bc
       0.20197222 -0.12435605 -0.10252275 -0.027051806
0000d0 98 3b 68 3c e8 18 9e 3b 48 2a c4 3c 4a 44 ac bc
       0.0141743645 0.0048247464 0.023945943 -0.021028657
0000e0 68 13 da 3b 0e d5 e2 bc f8 c6 ca bc 2e f2 9a bc
       0.0066551454 -0.027689483 -0.024753079 -0.018914308
0000f0 52 a9 7d 3c 6c ac 1e bc 46 2a dd bd 33 1e aa bd
       0.015482264 -0.009684663 -0.10799079 -0.08306541
000100 d6 93 8e bd 44 b5 cb bd 1d dc 28 be 74 29 85 be
       -0.06961791 -0.09946683 -0.16490217 -0.2600819
000110 cc 06 1d be 2b 56 c1 bc 20 da bd 3d 00 2c 40 be
       -0.15334624 -0.023600658 0.0927012 -0.18766785
000120 da 84 c6 bd 4b 8a e2 bd 80 76 b5 bd 05 10 16 bc
       -0.09693308 -0.110615335 -0.08860493 -0.009159093
000130 ee a0 3d bd 5b c3 f7 bd dc 26 06 be 1d 86 f1 bd
       -0.046296053 -0.12097808 -0.13100761 -0.11793158
000140 bc 3b 44 bc 49 f9 01 3d a6 75 de 3c 92 ec 11 bd
       -0.011977132 0.031731877 0.027155709 -0.035626
000150 78 0b db 3b 78 25 c5 bb 64 95 c0 bb e8 44 27 bd
       0.006684717 -0.0060164295 -0.0058771838 -0.0408372
000160 f3 9f 07 bd 54 e5 0a bd de 36 21 3e 9f 12 bb 3c
       -0.033111524 -0.03391011 0.15743586 0.022836028
000170 59 db f0 bb 62 2e 36 be 14 40 27 bf 36 28 cf be
       -0.007350367 -0.17791131 -0.6533215 -0.40460366
000180 04 7e 4d 3e 3a 07 00 be 7a ef 8f be 8d 15 94 be
       0.20067602 -0.12502757 -0.28112394 -0.28922692
000190 1c 55 2b be 3b 5a a3 be 00 45 24 be 62 07 15 be
       -0.16731685 -0.31904778 -0.16041946 -0.14553598
0001a0 df 29 66 be c6 91 c2 be 22 ee 8e be 00 dd f8 bd
       -0.2247691 -0.3800184 -0.27916056 -0.121515274
0001b0 b4 cb 2a be 44 83 10 bd 3c a2 6f bc f8 9a ad 3c
       -0.16679269 -0.035281435 -0.014626082 0.021192059
0001c0 8a 0a b2 bc 3b bc 04 3d ca 7f c8 3c 41 05 4e 3d
       -0.021733541 0.032406073 0.024474997 0.05029798
0001d0 ff 0f 66 3e eb 88 8c 3e 60 7d 98 3e 80 57 5a 3e
       0.2246704 0.2744821 0.29783154 0.21322441
0001e0 ae 68 e5 3c 08 da e7 be 54 11 d9 be 10 6d 75 be
       0.028004017 -0.45283532 -0.42396033 -0.23967385
0001f0 40 8c cb be 23 94 04 be a2 73 bc bd f6 38 f7 be
       -0.3975544 -0.12947135 -0.09201743 -0.48285645
000200 11 5d f6 be e9 15 ed be 2f 95 07 bf f6 19 f7 be
       -0.4811788 -0.4630578 -0.5296201 -0.48261994
000210 60 69 20 bd b0 51 eb bc c5 51 9b be f1 a3 e3 be
       -0.039162993 -0.028725475 -0.30335823 -0.44461015
000220 72 80 e9 be d6 45 c6 3d 2a aa 5a 3e 94 54 40 3d
       -0.45605808 0.09681289 0.21353975 0.04695566
000230 8f 91 0a 3d 9a cc b9 3c 20 e6 87 bc c8 a3 90 bd
       0.03383022 0.02268057 -0.016589224 -0.07062489
000240 e9 6e 34 bc b0 cc 82 3e 98 c6 5c bd ad 1b 93 be
       -0.011012771 0.2554679 -0.05390033 -0.28732052
000250 6f e8 bc bd b7 ae 4f be 95 58 c2 be 2c 92 13 bf
       -0.09224021 -0.20281492 -0.37958208 -0.57644916
000260 d1 eb 32 bf 1f 98 dd be f2 e0 7b be d2 35 a8 be
       -0.6989108 -0.43280122 -0.24597529 -0.32853562
000270 84 34 28 be f9 46 5c be 00 b4 28 be 6f 35 92 be
       -0.16426283 -0.21511449 -0.16474915 -0.28556392
000280 e7 1b 21 be 89 d1 20 be 69 26 73 be 12 b9 76 bc
       -0.157333 -0.15704931 -0.23745121 -0.015058773
000290 7e b3 a9 be 75 63 82 3e c6 e0 a2 3e 64 04 af 3d
       -0.33144754 0.25466505 0.31812114 0.08545759
0002a0 6b aa 03 bd 96 e4 14 3e cb e4 39 be d9 e8 9e 3e
       -0.032144945 0.14540324 -0.18153684 0.31037024
0002b0 b6 12 46 3e 74 b6 5a 3d c4 fc 54 3d 79 b7 a4 3e
       0.19343075 0.053396657 0.05199887 0.3217123
0002c0 f6 1f 9c 3e 51 ba 94 3e 46 ec 69 bc ff 9c ca bd
       0.30493134 0.29048398 -0.014277523 -0.09893226
0002d0 00 ec 16 bc 8f c9 0e be e2 59 be bd 6a 8a de 3d
       -0.00921154 -0.13944076 -0.092944875 0.10866244
0002e0 d2 ae 83 3d a2 1b 77 3d 38 41 04 3d 50 50 6b bd
       0.06429829 0.060329087 0.03228876 -0.05744964
0002f0 31 51 f4 bd e3 f9 49 3e 54 1e 70 be 77 75 ac bd
       -0.119295485 0.1972423 -0.2344907 -0.08420842
000300 e0 f7 03 be b6 95 1d 3e 43 8b 6a 3e f5 de 7c 3d
       -0.12887526 0.15389141 0.22904687 0.061736066
000310 a5 7b aa bc e8 61 b2 3e 5e ad fb bd 35 d7 ee 3e
       -0.020810911 0.34840322 -0.122889265 0.46648565
000320 7e 68 95 3e a8 1f 5c ba 7d 75 c9 3e db f8 06 3f
       0.29181284 -0.0008397051 0.3934745 0.52723473
000330 3f 89 e8 3e 18 5e 56 3e db e3 f7 bc f4 94 53 3d
       0.4541721 0.20934331 -0.030260017 0.051655725
000340 6f fc 95 3d 9d 82 0f 3e 6b bd 58 3e de 1d 23 3e
       0.073235385 0.14014669 0.21166007 0.15929362
000350 d0 87 49 3d 54 23 dc bb 65 de 82 bd e3 5c 6b bd
       0.049201787 -0.0067180786 -0.06390075 -0.05746163
000360 6d a9 83 3b 34 7a fc 3d 74 67 7b bd e8 8b 95 be
       0.004018 0.12327996 -0.061377957 -0.29208302
000370 7b 01 9b be d4 92 0a be ee 1a 8e 3e b0 a7 92 bd
       -0.30274567 -0.13532573 0.2775492 -0.0716089
000380 9d e5 05 bf 4d d8 fd 3d b4 5a 26 be ee f4 2c be
       -0.5230349 0.12394772 -0.16245538 -0.16890308
000390 f1 f0 3d 3e 41 d8 ec 3d 5f 80 da 3e e9 67 b5 3e
       0.18548943 0.11564685 0.42676064 0.3543084
0003a0 a7 3d 09 3f 64 02 80 3e e1 ff a3 3e da 9a ad 3e
       0.536097 0.25001824 0.32031158 0.33907205
0003b0 01 d4 8d 3e 57 59 b1 3e 68 9d b9 3e 87 0a 39 3e
       0.2770081 0.34638473 0.36252904 0.18070422
0003c0 e6 00 c0 3d f8 a8 de 3c 85 05 5d 3d a3 7b c2 3d
       0.09375171 0.02718018 0.053960342 0.09496238
0003d0 a3 1b 2a 3e 74 3d dc 3d 0c 89 26 3e 39 5d 42 be
       0.16612105 0.10753909 0.16263217 -0.18980874
0003e0 47 c1 a1 be 79 fe ad be f0 a3 3a 3e 0e 01 5a bd
       -0.3159277 -0.3398321 0.182266 -0.053223662
0003f0 d3 81 a1 3d c6 b7 80 3e 6c 00 72 be d8 65 d2 bd
       0.0788609 0.25140208 -0.23632973 -0.102733314

linear.bias f4 [256]
000000 5a c0 39 3b 26 ef f4 3c 54 11 ef 3c 0e 86 d2 bd
       0.002834341 0.029899191 0.029183067 -0.10279475
000010 c9 e8 41 bd c1 d3 2e be 94 0d 66 be ae 38 1d 3d
       -0.04734114 -0.17072965 -0.22466117 0.038384132
000020 ac 98 f0 3d ab 69 69 3d d5 08 46 be 19 bb 41 3d
       0.1174787 0.05698554 -0.19339307 0.04729757
000030 69 10 ca bd 08 f2 fe bd 8e 24 a2 3d ac 37 02 be
       -0.09866411 -0.124485075 0.079171285 -0.1271655
000040 22 79 82 bd bd f5 ae bc 76 f3 de bc 62 94 46 bd
       -0.063707605 -0.021357412 -0.0272157 -0.048481353
000050 38 9b e8 37 f7 34 e3 3d f3 94 e8 3c cd e4 93 bd
       2.7728835e-05 0.110940866 0.028391337 -0.07221375
000060 8c 07 61 3e ae 20 86 3d 86 31 04 be fa 1b 7f bc
       0.21975535 0.06549202 -0.12909517 -0.015570635
000070 b6 c3 8f 3d aa 77 b1 3e 45 bf 6a 3e 59 9d 99 3e
       0.07019751 0.3466161 0.22924526 0.3000286
000080 aa c2 fa bd fa 42 6b 3e 7f d8 cd bd 3c 91 64 bc
       -0.122441605 0.22974768 -0.10051059 -0.013950642
000090 ef dd 0e bd b7 8c cd 3c 39 5f 72 be 55 85 4d bc
       -0.03487962 0.025091512 -0.23669137 -0.012543996
0000a0 d3 85 d1 bd f3 86 80 3d 02 c3 ca 3c d5 e1 5e bc
       -0.10230603 0.062757395 0.02475119 -0.013603647
0000b0 ba 76 4f bd 19 39 b9 bd 37 cb 05 be e5 c8 2b be
       -0.050650336 -0.09044094 -0.13065802 -0.16775854
0000c0 6b 2e ff 3d f1 b7 ab bd 5c 80 dc 3d 14 47 3d bd
       0.124600254 -0.083846934 0.1076667 -0.046210364
0000d0 49 83 23 be e7 d8 cd bd 46 07 4f bd 56 6f 21 be
       -0.1596805 -0.100511365 -0.050544046 -0.15765128
0000e0 03 fb 9d 3e 3b 1f 76 bd a8 8a 81 bc 1e 33 ee bb
       0.3085557 -0.060088377 -0.015813187 -0.0072692772
0000f0 57 94 8a 3e 2c d5 74 3c 0a 84 3f bb 6f 87 b9 bb
       0.270663 0.014943402 -0.0029222989 -0.005661897
000100 86 c4 89 bd 79 5f a5 3e 0c d7 9f 3d 8d 63 80 bd
       -0.06726937 0.32299402 0.07804689 -0.06268988
000110 c7 50 87 bc eb 5c 36 3c 2e e4 c5 bd 65 c8 90 bd
       -0.01651801 0.011130552 -0.096626624 -0.07069472
000120 f4 f2 3e be 0c 9d 9d 3d 76 29 95 3d 0d bd 59 3d
       -0.18647367 0.0769597 0.07283299 0.05315881
000130 ca e8 19 3c f1 18 79 bd 20 5d c9 bd 8b 50 c6 3e
       0.00939388 -0.0608148 -0.09832215 0.38733324
000140 08 43 96 be 61 52 3e 3d 03 e2 75 be 88 5c 33 be
       -0.29348016 0.04646528 -0.24011998 -0.17515767
000150 a3 a2 35 bd 8c 7b 4a 3d f3 c1 df bd b0 d2 ef bd
       -0.044344556 0.04943423 -0.10925665 -0.11710107
000160 81 b1 5d bd 27 cb 27 be b8 66 e3 bd 84 39 a8 3e
       -0.05412436 -0.1638609 -0.111035764 0.3285638
000170 47 28 8e bc 64 4b 1e be 24 a8 6a be 42 fd 13 bd
       -0.01735319 -0.15458447 -0.22915703 -0.036130197
000180 b4 c1 61 3e d7 53 d8 3d c2 0f 94 3d 64 9e a1 3b
       0.22046548 0.10562866 0.07229568 0.0049322117
000190 de db 2a bd 22 92 e6 3c fb ec 38 3e d2 58 8a 3c
       -0.041713588 0.028145853 0.18059151 0.016888056
0001a0 24 a4 9b 3d e4 f7 20 3e 82 6d fa 3d 89 af 11 3e
       0.07599667 0.15719563 0.12227918 0.14227118
0001b0 99 06 1a bd 76 11 8c 3d e4 b7 4a bd b4 bb 83 be
       -0.03760395 0.06839268 -0.049491778 -0.25729144
0001c0 22 cf 28 3e f7 fb 21 bd fc 1a 31 be 03 31 3b bd
       0.16485265 -0.039546933 -0.1729545 -0.045701038
0001d0 ad 84 3c be 57 14 5f bd 8e df 5d bd aa 3b cd 3e
       -0.18409987 -0.054462757 -0.054168276 0.40084583
0001e0 8a 07 b1 3d 07 1c 48 3d 5c 7a 1a 3e 52 58 34 3e
       0.08644016 0.048854854 0.15085739 0.17611817
0001f0 90 5a dd bd 91 65 e2 bd 81 35 43 be 7d 0b 1e 3d
       -0.10808289 -0.110545285 -0.19063379 0.038585175
000200 fc 71 01 3d 1f 73 0f 3d 86 05 42 3e 74 09 97 bd
       0.031602845 0.035021897 0.1894742 -0.0737485
000210 da b7 1b bf 52 14 33 bc 60 9d 4e bb 78 33 35 bd
       -0.6082741 -0.010930138 -0.0031526908 -0.044238538
000220 6c 71 ea bb 51 76 bc bd ff cf 1d bc f5 3e 06 be
       -0.007154634 -0.092022546 -0.00963211 -0.13109954
000230 06 e9 40 be b1 6f 65 bb 27 d1 24 3e 1f b4 52 3e
       -0.18838891 -0.00350092 0.1609541 0.20576523
000240 c5 ee 93 3c c7 3e b5 bd 9f fb 60 bd ed 66 0a 3e
       0.01805819 -0.088498645 -0.054927465 0.13515826
000250 0a 4c 9c bd 2e dd de bc c2 e0 a1 bd 9b b2 44 be
       -0.07631691 -0.027205076 -0.07904197 -0.19208758
000260 5d be a8 bd df c9 cf 3d de 78 a6 3d a1 a5 bc 3e
       -0.08239434 0.10145926 0.08128522 0.36845115
000270 00 1f 6e 3c 69 9d 69 bc f7 cf 41 3d 19 b4 05 be
       0.014533758 -0.014258721 0.04731747 -0.13056983
000280 7a 04 91 3d a5 21 8c bd 5f a4 2f be 9d c4 89 bd
       0.07080932 -0.06842355 -0.17152546 -0.06726954
000290 12 73 94 3d 65 56 ea bd f4 ae 18 be 2e 27 4d 3c
       0.072485104 -0.1144226 -0.1491049 0.012521548
0002a0 50 6d fa bd df 92 fd 3d b7 ce 38 be 01 3f f6 bd
       -0.12227881 0.12381529 -0.18047605 -0.12023736
0002b0 b6 c5 85 3e f9 85 bc 3c 99 c2 8a 3d 39 72 2d be
       0.26127404 0.023013102 0.06775398 -0.16938104
0002c0 90 98 8c bd 16 7e 03 be d0 00 84 bd e7 57 3f 3e
       -0.068650365 -0.12841067 -0.064454675 0.18685876
0002d0 c4 c6 fd 3d dd 6f 0e bd a7 7d b4 be b3 d7 ba bd
       0.12391427 -0.03477465 -0.35252115 -0.091231726
0002e0 37 6b 4c 3d 31 da cd 3d 9e a9 6d 3e fb a5 7c 3d
       0.049906936 0.10051382 0.23209235 0.06168173
0002f0 2e ab a7 be da 89 05 3e cb 4d 88 3e f4 2e 56 be
       -0.32747787 0.13040867 0.2662185 -0.20916349
000300 d6 ab 47 3e e7 76 3f be a4 ef 1e 3e 76 d2 61 be
       0.19499144 -0.18697701 0.15521103 -0.2205294
000310 6f 9a 7c 3d bb 65 34 be d5 80 05 be ed c5 83 be
       0.061670717 -0.17616932 -0.13037427 -0.25736943
000320 ab f9 9d 3d 88 d8 d2 3d fe c9 3a bd ae c3 9c bd
       0.07713636 0.10295206 -0.04560279 -0.076545104
000330 8d 34 2c be 52 5a 0e be c3 4a e7 bc 92 b1 b4 3c
       -0.16816922 -0.13901642 -0.028233891 0.022057328
000340 dc 3c 80 bd 9a c6 02 3e 53 4f 98 bd ed 84 11 be
       -0.06261608 0.12771073 -0.07437005 -0.14210863
000350 a9 98 a2 be 3e 1a 8d bd 9f 3c 00 3d a2 70 25 be
       -0.31757095 -0.06889771 0.031307813 -0.16156247
000360 32 a5 00 bd f9 da e1 3d b4 03 47 3e d8 d2 82 3d
       -0.031407543 0.11028094 0.19435006 0.063878715
000370 f4 4d 2a 3e cc 90 be bd b9 a4 20 3d c5 b1 19 be
       0.166313 -0.093049616 0.03921959 -0.1500922
000380 2a a2 c5 3d b2 b6 a7 bd 47 82 c7 3d af 84 87 3e
       0.09650071 -0.08189143 0.09741645 0.26468417
000390 70 83 e5 bd 12 11 47 be 14 f0 8c 3e 3e e6 d2 bc
       -0.1120671 -0.19440106 0.27526915 -0.025744554
0003a0 af 22 db bc d4 5e 71 3c 68 1b a8 3d 5c 62 5b bd
       -0.026749937 0.014732081 0.08208352 -0.0535606
0003b0 6c 29 b6 bc 5d e1 aa 3c d8 56 1c bc 02 b5 26 3e
       -0.022236548 0.020859415 -0.00954219 0.16279987
0003c0 00 f7 ae 3c d2 99 30 be 92 55 0b be 86 c5 51 bd
       0.021358013 -0.17246178 -0.13606861 -0.051213764
0003d0 15 57 35 bd 1c 6a 78 3e e9 31 9b 3d 77 34 0e bd
       -0.0442725 0.24259228 0.07577879 -0.034718003
0003e0 1b 84 04 bd a9 79 d4 bd 13 e0 09 3e db b1 b1 3d
       -0.032352548 -0.10374767 0.13464384 0.08676501
0003f0 f1 97 d2 bd 66 b8 a6 3d 37 1b 46 bd b9 16 c6 3d
       -0.10282887 0.0814064 -0.048365798 0.09672303

output.weight f4 [10, 256]
000000 e1 e5 8b be 8a 79 40 3e 0f 8a 8f bd 6a 14 b8 3c
       -0.2732382 0.18796363 -0.070087545 0.022470672
000010 9d 5e ec 3c af 31 b5 3d 2f 59 3d bd b1 bf 00 bd
       0.028853709 0.08847367 -0.04622763 -0.03143281
000020 2b e5 24 3e c3 0d 86 be 88 cc 08 bd 9b 8c e9 3c
       0.16103046 -0.26182374 -0.03339818 0.028509429
000030 5e 59 55 3e 38 3d 09 bf f0 0d 2a be 9c 62 dc 3b
       0.20834872 -0.5360904 -0.16606879 0.0067256223
000040 ed 2d 15 be a2 44 16 be 50 c2 41 3e b3 d8 d1 3d
       -0.145683 -0.14674619 0.1892178 0.1024641
000050 4a 37 b7 be 21 93 69 3e 7a bd 1d bf 5a fb 8e 3c
       -0.3578437 0.22810031 -0.61617243 0.017453838
000060 4e 32 e1 3d 46 2b c1 3e 08 81 a0 3d 92 92 90 be
       0.10995923 0.37728328 0.07837111 -0.28236824
000070 98 e8 cf bd 0c 81 17 bf 3c 93 6b 3e 34 39 be 3d
       -0.101517856 -0.59181285 0.23005384 0.092882544
000080 66 13 10 be 8e f0 1d bf f3 b0 63 3d 21 fb be 3d
       -0.140699 -0.6169518 0.055588674 0.09325243
000090 2b 6e 12 3e 66 82 02 bf 55 67 a4 3d d3 49 bf be
       0.14299838 -0.5098022 0.080275215 -0.3736101
0000a0 b6 d0 fd 3d 00 88 be be bc da 42 be bd 45 2c bf
       0.12393324 -0.37213135 -0.19028753 -0.6729391
0000b0 a8 8c a8 3c 18 a5 6a 3e aa 2c 1f 3f 50 72 24 bd
       0.020574883 0.22914541 0.62177527 -0.04014808
0000c0 02 82 28 bf 5f 53 1a 3e e6 29 8f 3c 7b 81 87 3d
       -0.65823376 0.15070866 0.017476033 0.06616493
0000d0 18 c7 ab 3d 6f 1b 88 bc cd 48 ac 3e 52 69 9c 3b
       0.083875835 -0.016614644 0.33649293 0.0047732973
0000e0 cd 4a 3e bf f2 f5 cf be 32 41 de 3d 0e 94 34 bc
       -0.74332887 -0.4061733 0.10852279 -0.011021627
0000f0 0a c3 eb 3d 26 7e e1 3d 53 37 62 bd 82 33 2e 3c
       0.1151181 0.11010389 -0.055228543 0.010632398
000100 bc 7f 83 3e c2 04 96 be 60 07 e3 be 01 1c 05 bf
       0.2568339 -0.29300505 -0.44341564 -0.51995856
000110 cd 80 ba 3e 70 d0 0e be 94 0c d4 bc 50 46 05 bf
       0.36426392 -0.139467 -0.025884904 -0.52060413
000120 42 e7 84 bf 4a 61 b0 be 11 cd fb 3d eb fc 6a be
       -1.0383074 -0.34449226 0.12294973 -0.22948043
000130 ed 6a 7f 3e 94 f1 56 3e e4 08 87 bd a5 dd 60 bd
       0.24943133 0.20990592 -0.065934926 -0.054898877
000140 13 32 5e be 9e 57 bc 3d a7 31 6a 3d d3 a6 ad 3d
       -0.2169879 0.09196399 0.05717626 0.08479085
000150 a3 c1 9e 3d 2f f4 53 3e ca cc dc 3d 74 22 b7 be
       0.07751777 0.20698617 0.10781248 -0.35768473
000160 f3 45 a9 bd c5 55 71 3e 31 00 82 be 15 6a af be
       -0.08265295 0.23567875 -0.2539077 -0.34260622
000170 65 84 a1 3c c3 9f ec 3d b8 f3 33 be c9 8e f4 3c
       0.019716451 0.1155391 -0.1757344 0.029853242
000180 f2 0b bc 3d c6 2c 85 bf 4d f0 b4 be c4 0c 0a 3a
       0.09181966 -1.0404289 -0.35339585 0.00052661845
000190 73 9d 23 be f6 01 b2 bd 78 dc 67 3d e7 07 48 3e
       -0.15978031 -0.0869178 0.05660674 0.19534265
0001a0 f9 ab 3c be 61 bc 7b bc db 2e 2e be 24 d9 db 3d
       -0.18424977 -0.015364737 -0.17010061 0.10734776
0001b0 8a ee 99 be c8 d2 f9 be 02 0c 0e 3e 76 04 6d be
       -0.30064803 -0.48793626 0.13871768 -0.23146233
0001c0 a4 5e a3 3e 25 92 90 3d 65 71 66 be 83 4c 32 3d
       0.31908143 0.07059125 -0.22504194 0.04353
0001d0 e3 d6 59 3d d4 fd 31 bd 36 f9 8a 3d 65 00 99 be
       0.053183448 -0.04345496 0.067858145 -0.29883114
0001e0 8c 0d 24 3e d7 29 01 3e dd d1 51 bf 9a 5d 6b bf
       0.16020793 0.12613617 -0.8196085 -0.919397
0001f0 50 88 01 3e 48 f2 a4 bc 0e ea 06 bf 31 a3 66 3d
       0.12649655 -0.02013506 -0.5270089 0.056307975
000200 59 d8 2d bf cb 10 8c be bd a1 b7 be 91 9a a9 be
       -0.67908245 -0.27356562 -0.35865584 -0.33125737
000210 b5 41 d0 3d 0c 82 02 3d 31 3c 89 3e d1 4a 15 3e
       0.101687826 0.031862304 0.26803735 0.14579321
000220 b6 b4 93 bc 0e 5f bd bc 53 9a 03 3e c2 60 84 3d
       -0.018030506 -0.023116615 0.12851839 0.064637676
000230 98 c8 f3 3d ee 71 0e 3e 35 23 59 3e bc 59 99 bd
       0.119034946 0.13910648 0.21204837 -0.074878186
000240 38 62 15 3e a5 83 4e 3d 0c d7 a4 3d c2 03 f8 be
       0.14588249 0.050418515 0.080488294 -0.48440367
000250 0f 2b ea bc 5f e8 93 3d dc e7 a8 3c 62 70 fb 3d
       -0.028584985 0.07222056 0.020618372 0.12277295
000260 ca bc e3 3d 57 7b b3 bd 75 27 3d bf 4d ee 52 3e
       0.11119993 -0.087637596 -0.7388833 0.20598717
000270 2c 43 73 be 6b b2 82 3e 85 dc ed be 32 e9 af be
       -0.23756093 0.25526747 -0.46457306 -0.343576
000280 6d 65 6f be c0 09 9c 3d 48 58 51 bc ec 10 75 bd
       -0.23378535 0.07619047 -0.012777396 -0.05983059
000290 27 77 97 3e ab b7 3e be 1b 08 a4 3b d1 05 05 bd
       0.29583094 -0.18624751 0.005005849 -0.03247625
0002a0 32 bd 14 3d e2 ae 70 3e a5 d1 a2 3e 8b 32 a0 be
       0.036313243 0.23504212 0.3180057 -0.3128856
0002b0 ad 70 82 3e c2 11 15 be 0b 6a ca be 64 0c 31 3d
       0.2547659 -0.14557555 -0.3953403 0.043224707
0002c0 41 05 d2 bc 33 89 23 3c 1e 6c e8 3c 63 f2 e1 3d
       -0.02563727 0.009981441 0.028371867 0.1103256
0002d0 e9 38 fd 3d 55 66 55 3c 31 b4 b9 3d 40 39 52 be
       0.123643704 0.013024886 0.09067572 -0.20529652
0002e0 41 01 e7 be 42 af 14 3e 8c f4 e0 bd 30 8f 96 be
       -0.45118144 0.1451998 -0.109841436 -0.29406118
0002f0 59 b5 8c be 00 12 e6 3d 0f 8b 02 bf 86 22 c1 be
       -0.27482107 0.11233902 -0.50993437 -0.37721652
000300 f7 3d ca bd a4 36 ba be b0 c5 2a 3e 33 41 81 be
       -0.098751 -0.36369812 0.16676974 -0.25245056
000310 54 62 51 3e 6e 0a c0 3b 2d 99 0d bf f8 01 16 3e
       0.20447665 0.0058606183 -0.5531185 0.14649189
000320 08 24 3a 3e d6 ae 9b 3e e9 86 77 3e f9 ab 66 be
       0.18177807 0.30406827 0.24172558 -0.2252654
000330 45 53 0e 3e 79 db 12 3d 6a e3 62 be dc 7e 97 3e
       0.13898952 0.035853837 -0.22157064 0.29588974
000340 de 92 0a 3e e5 d7 85 3c 79 e8 07 3e 62 22 82 3e
       0.13532588 0.016338298 0.13272275 0.25416857
000350 72 10 b9 be 88 88 1f 3e cb 16 02 3b 7a 35 70 bf
       -0.3614536 0.15579426 0.0019850011 -0.938316
000360 cd b0 13 3e e4 7d 86 3e e8 71 cb 3d e9 15 73 3e
       0.14422913 0.26267922 0.09933835 0.23738827
000370 ea e4 00 be b4 3a 85 be 60 0c 83 3d 4c b1 00 3e
       -0.12587324 -0.2602135 0.06398845 0.12567633
000380 33 c1 7f 3e 97 a6 3d be 45 10 92 bf 61 e0 30 be
       0.24976043 -0.1852058 -1.1411215 -0.17273094
000390 78 d2 ce 3d 67 01 e9 3d 6a d4 ca be 28 81 ad 3d
       0.100987375 0.113772206 -0.39615184 0.084719
0003a0 0a ba ec 3c 51 01 b7 bd 95 5e 35 3e 91 22 c0 3d
       0.028897304 -0.08935798 0.17711861 0.09381593
0003b0 c5 ab b9 bd 54 39 b6 3e 14 da a1 be e3 ed 55 3e
       -0.090659656 0.35590613 -0.31611693 0.20891528
0003c0 90 69 1c 3e 5c 87 1d 3e df 3e fb ba f0 e2 ec 3d
       0.15274644 0.15383667 -0.0019168517 0.115667224
0003d0 8c 57 65 3d 20 32 45 be db 3f e1 be df 7d fd 3d
       0.055991694 -0.19257402 -0.4399403 0.12377524
0003e0 83 90 bb bd eb b7 12 bf c9 52 2c bf 97 7e a9 3d
       -0.09158423 -0.57311887 -0.6731382 0.08276098
0003f0 28 25 65 bd 61 03 30 bf 04 2a f4 bd 7a 18 04 bf
       -0.055943638 -0.68755156 -0.11922076 -0.5159985

output.bias f4 [10]
000000 82 cc 83 bd 66 02 4e be 47 5e 96 3d 96 70 89 bd
       -0.06435491 -0.20118102 0.07342201 -0.06710927
000010 e1 cc d9 3d 8e 16 c9 bc 9a 6a 13 be b3 f7 e2 bd
       0.10634781 -0.024546888 -0.14396134 -0.11082401
000020 d3 a5 86 3e 6d 8a af 3b
       0.2629839 0.005357078
