day27/model/scripted_model.pt (torch, 6758 bytes, 3 tensors)

weight f4 [4, 2]
0	0x4035872f	2.836376
1	0xc058ac54	-3.385518
2	0x3d09d075	0.033646066
3	0x407c221e	3.9395823
4	0xbfd707d3	-1.6799263
5	0xbfea8500	-1.8321838
6	0xc0425af5	-3.0368016
7	0xc05b2083	-3.4238594

bias f4 [4]
0	0xbdb40233	-0.08789482
1	0x3bc69142	0.0060597965
2	0x3d2a22af	0.041536983
3	0xbddb21b1	-0.106997855

weight f4 [1, 4]
0	0x402a17c1	2.6576998
1	0x404ed829	3.2319434
2	0x3f4c6ef5	0.79856807
3	0x3ff61ca6	1.9227493
